app/src/main/assets/mnist.tflite (tflite, 116616 bytes, 6 tensors)

arith.constant5 f4 [10]
00000000: 04a6 27bc 2a99 4a3e 5f6c e53c 6d98 e2bc
00000010: e00a f1bc abe2 463d c354 9cbb cce2 8e3d
00000020: 09a0 13be 1dcf 6ebd
-0.010232452 0.1978499 0.028005777 -0.027660573 -0.02942413 0.04855601 -0.0047708466 0.06976852
-0.14416517 -0.058302987

arith.constant6 f4 [32, 3, 3, 1]
00000000: ac65 fe3d 86af 33be e26f 95be 35ef 8d3e
00000010: a0dd e0bd e86f 14be 3d7b 5c3e ba34 263e
00000020: ed9d 27bd ebf6 adbe 993e 96bd e334 c03d
00000030: dc3c 2c3e 8faa 6d3e ae3b 6ebd 2586 a33e
00000040: 3f00 2ebd 5085 8ebe 8fc9 103e 9b22 9bbd
00000050: 6a7a 67ba 4f7b 02be c096 343e 2613 213e
00000060: e40d 80b9 fc87 e2bd 5327 a83c fbac 2bbd
00000070: df2b 1fbd 832c 9ebe a3ea 9e3e da53 1b3e
00000080: 5d32 03be fd64 223d 02bc d33b df11 b43d
00000090: 5aba da3c cdad 31be 31ac b9be cea6 0ebd
000000a0: e3bf 233e 263c 433d db5e de3d 6c7f 763d
000000b0: 3b0d 6d3e e755 b73d 1a81 e73d f7b5 803e
000000c0: cf86 e4bd 9d2b 52bd d12a 153e 4014 a8be
000000d0: 5832 b6be 2008 31be cc18 e93c 9e8f 7d3d
000000e0: 6286 d6bd 29ef 0c3e c235 d7bd 509f a03d
000000f0: 106f 8e3c 6e1f eabd 5cc7 c63d 3aba 5cbd
00000100: d55c 62be ea8e 7dbe ce60 c0bc 8d28 713d
00000110: f7aa 453e b183 963e 2f9a c03d 4af4 3fbc
00000120: a605 473e 2c54 873e f17e c23d 523e b9bc
00000130: d128 9dbc fad7 b33d 5617 81be 5c03 a0be
00000140: 70ef 7bbe 5683 293e dc34 b83d a112 b23d
00000150: fc46 f03d 8f1e 5fbc d3fa 36be 4e23 3f3d
00000160: 04d8 28be d55b 8b3d 39b0 d7be 6bfd b6be
00000170: bb68 4bbe 8885 14be 6bf5 ebbd 9844 0c3d
00000180: 43b4 643b 2d0e 3c3e 766c d03e 5570 4ebe
00000190: 46ac c9be 07bf 28be 3897 4a3e fd46 1a3d
000001a0: aa99 cdbb 336c 5e3e 46ef 193e 47e2 2d3d
000001b0: c697 2ebe 3226 593d a98c 7bbd b015 973c
000001c0: 1e0b 2d3e f0a1 33be 3a5c 91be 6f22 113d
000001d0: 2068 2b3e dd1a 83be 2804 adbd c7d2 c1bc
000001e0: bfd3 36bd 9d82 d2bd ba46 b73d 026b ba3d
000001f0: 7ff8 353e 57a6 1d3e 35a4 113e c5c3 39be
00000200: 8815 97be dde0 323e e20c 4dbd b5eb 4abd
00000210: af18 893e 89e1 1c3e 2356 d73d ec38 b43c
00000220: 5791 903d ac07 7a3e 4435 2ebd 2f7e 5e3c
00000230: bfde 8e3e 2fda 88be 6593 83be c04e a5bd
00000240: 483d 663e c202 6d3c 13fa 8ebe a8d5 93bc
00000250: 6037 0f3e ad7f 9bbe 914f 7a3e e82a f13c
00000260: 95ca 88be 2955 16bd 8744 ce3d f7f3 a63e
00000270: 7b94 5cbe 003a d73c 7b10 043e c074 75be
00000280: 3cc0 edbe 25a0 a9be fc3c 65be ee1a 5dbe
00000290: 2f6d e83d 3c55 74be 8f42 fabd 8284 763e
000002a0: 1a95 993d 6998 233e 0931 fd3d d1fc 993e
000002b0: 176b 8e3e a1c3 f8bb de6d bc3d 3ecb b93c
000002c0: 9ec9 a2be 183d 903d 0db8 dcbd e0d1 e9be
000002d0: 11c8 c4bd 7f23 a0bc bc33 fabb a41e c53d
000002e0: 034d 523d 8779 13be 9505 793d 5ed4 073e
000002f0: 6756 1c3d 21ab 8d3c 04e1 bf3d 86ad 323e
00000300: 3732 10be 3a98 5e3d c3ca 6cbe 900c 863d
00000310: ba32 9c3d 8910 69be ff26 c4bb 3a32 9a3d
00000320: 3c97 f5bb d1f1 123d 6d2b 12be 6e92 01be
00000330: 2fb8 da3c 7501 663c e293 783d 9fab 703e
00000340: 38a5 fd3c 14a6 6a3e 5408 983e b4dc 8b3d
00000350: 3a78 3cbe 3333 e53c 8aac 79be 108b c0be
00000360: 748c 913d ec18 22bd 0c17 87be c99b 193e
00000370: 3285 14be 4a3f 1bbe cdeb 5c3e 93b0 153d
00000380: 9002 503e 42a3 efbd ab04 e53d e22e fbbd
00000390: a230 5ebc 3e04 ce3d 228f 66be ea9f c23d
000003a0: cba4 b73d e92c 9e3c 88c5 babb 8a0f 78bc
000003b0: c5ac 2dbe 4ee9 2d3e 82c6 2ebe 832a 85be
000003c0: 7aca 633e 36a7 363e ae31 bebc 2a87 3b3e
000003d0: 7b96 013e 71fd 333d 2556 ce3d 2b4c ba3d
000003e0: be5c 9dbd dda7 81bd 9e66 eabd d4f1 8cbd
000003f0: 742f c1be cd32 09be 36a2 693e a1eb e4bd
0.12421736 -0.17547426 -0.29186922 0.27721563 -0.109797716 -0.14495814 0.21531387 0.16231051
-0.040922094 -0.33977446 -0.07336158 0.09385087 0.16820091 0.23209594 -0.058162384 0.31938282
-0.042480703 -0.27836084 0.14139389 -0.0757496 -0.0008830192 -0.12742351 0.17635632 0.15729961
-0.00024424412 -0.11061093 0.020526564 -0.041913014 -0.038860198 -0.30893335 0.3103839 0.15168706
-0.12812181 0.03964709 0.0064616213 0.08792471 0.026700187 -0.17351456 -0.36264184 -0.034827046
0.15991168 0.047664784 0.10857936 0.060180113 0.23149578 0.089519314 0.11303921 0.25138828
-0.11158525 -0.051311124 0.14567114 -0.3282795 -0.35585284 -0.17288256 0.028454207 0.061904542
-0.1047485 0.13763107 -0.105083 0.078428864 0.017386943 -0.11431776 0.097059935 -0.053888537
-0.22105725 -0.24761549 -0.02348366 0.058876563 0.19303499 0.29397348 0.09404408 -0.011715958
0.19435748 0.26431406 0.094968684 -0.022612724 -0.019184502 0.08781429 -0.25213116 -0.31252563
-0.24603057 0.16554007 0.08994457 0.086949594 0.11732289 -0.013618126 -0.1786912 0.04666453
-0.16488653 0.06804625 -0.42126635 -0.35740218 -0.1986417 -0.14504063 -0.11521419 0.034245104
0.0034897483 0.18364783 0.4070775 -0.20160039 -0.39389247 -0.16479121 0.19784248 0.037665356
-0.0062744217 0.21720962 0.15032682 0.042452123 -0.17050084 0.05301494 -0.06141344 0.018442959
0.16898772 -0.17542243 -0.28390676 0.03543323 0.1673894 -0.25606433 -0.08448058 -0.023660077
-0.04463553 -0.10278819 0.08949037 0.09102441 0.17770575 0.15395485 0.14222796 -0.18141086
-0.29508615 0.17468591 -0.050061114 -0.049541194 0.26776645 0.1532041 0.10514476 0.021999799
0.070589714 0.24416989 -0.042531267 0.013579889 0.27904317 -0.2672896 -0.2569839 -0.08071661
0.22484314 0.01446599 -0.27925166 -0.018046215 0.13985968 -0.30370846 0.24444415 0.029439405
-0.26717058 -0.03670231 0.10071664 0.32608005 -0.21541016 0.026272774 0.12896912 -0.23970318
-0.46435726 -0.33129993 -0.22386545 -0.21592304 0.1134895 -0.2386064 -0.12219726 0.24073985
0.07499142 0.15976109 0.12362868 0.30075696 0.27816078 -0.00759168 0.09200643 0.022679921
-0.31794447 0.07042903 -0.107772924 -0.45667934 -0.09608472 -0.019548176 -0.0076355617 0.09624985
0.051342975 -0.14401828 0.06079634 0.13264605 0.038168337 0.017293515 0.0936909 0.17449006
-0.14081655 0.054344393 -0.23124222 0.06545365 0.07626863 -0.22760214 -0.005986094 0.07529111
-0.007494835 0.035875145 -0.14274378 -0.12653515 0.026699154 0.014038433 0.060687907 0.23502968
0.030962572 0.22914916 0.29693854 0.06829205 -0.18405238 0.027978515 -0.24382225 -0.37606096
0.071068674 -0.03957455 -0.2638477 0.15000834 -0.14503935 -0.15160862 0.21574326 0.036545347
0.20313478 -0.11701061 0.11182531 -0.122648016 -0.0135614 0.10059403 -0.22515538 0.095031574
0.08966979 0.019308524 -0.005699817 -0.015140424 -0.16960438 0.1698353 -0.17067912 -0.26008996
0.22245207 0.17837223 -0.023217048 0.1831328 0.1265506 0.043942872 0.100750245 0.09096559
-0.07683705 -0.063308455 -0.11445354 -0.068820626 -0.37731516 -0.13398285 0.22815785 -0.11177755

arith.constant7 f4 [64]
00000000: 02e4 1fbc 94c8 bd3b d6f7 54bc e927 06bd
00000010: dd87 e23b 8650 0a3d 3b10 3fbd 75a1 30bc
00000020: 29e7 7ebb 72d0 4c3c 69c6 0fbc a96a 0c3b
00000030: 966d 21bd 9511 70bd de7f cdbc 8472 e7bc
00000040: 76f1 41bc 0546 d33b 248b f93c 5b37 46bc
00000050: 67ba 133d 6c95 2abd 5e82 dbbc baf1 15bd
00000060: 8952 77bd c596 3cba ade8 573d 0b45 8cbd
00000070: b111 3d3c b467 f9bc e1ef 5d3d ba03 3abd
00000080: 6427 5fbd badc 963d 4f12 4c3d d928 60bd
00000090: 045f 63bd a83c 78bd f4ab 943c 9965 b4bc
000000a0: 1663 52bd d235 03bc e20c 52ba b2c9 86bc
000000b0: 30e6 0dbd c209 1ebd d44e 413c bdfe 293d
000000c0: 79a7 49bd 4f31 71bd 9201 cabc 005c 94bc
000000d0: 0b19 58bd c8d4 cfbb 2a24 10bd 83f1 37bd
000000e0: a451 c4bb b2c3 a2bd c949 0ebb fbfb 78bd
000000f0: a708 1abd 3335 d8bc 10ed bf3c 2a2d eb3a
-0.009758951 0.005791733 -0.012998542 -0.032752905 0.006913169 0.0337682 -0.046646338 -0.010780682
-0.0038895106 0.012500869 -0.008775332 0.002142588 -0.03941115 -0.058610518 -0.025085386 -0.028252847
-0.011837354 0.006447556 0.030461855 -0.012098159 0.03606644 -0.041646406 -0.026795562 -0.03660748
-0.060381446 -0.0007194097 0.05271213 -0.068491064 0.0115398625 -0.030444957 0.054183844 -0.04541371
-0.054480925 0.07366319 0.049822148 -0.054726455 -0.055510536 -0.06060472 0.0181484 -0.022021102
-0.051364027 -0.008008437 -0.0008012784 -0.016453598 -0.034643352 -0.038583525 0.011798579 0.041502703
-0.04923198 -0.058884915 -0.024658952 -0.018110275 -0.052758258 -0.006342504 -0.03519074 -0.044908058
-0.0059911776 -0.07947482 -0.002171146 -0.060787182 -0.037605908 -0.026392555 0.02342847 0.0017942537

arith.constant8 f4 [32]
00000000: 1ff6 763c 8dac 44b9 3718 5cbd c01a d7bc
00000010: 6ac0 e6bc 895e 363c e5c8 e2bd 2bfc f73b
00000020: 51fb 383d 3307 82bd 5878 c53d 3f81 e93b
00000030: 65c4 70bd ce5d 8ebc 4362 4cbd 927d f4bb
00000040: a799 043d 7b71 013d 6db9 b73c d21a 86bb
00000050: 022c 31bd 183a 8ebc da2a 09be 648c 1ebc
00000060: bafb 79bd ef9f 1dbd de4d d7bc eb8a 42bd
00000070: ce8b b9bc 2932 adbc 5f9f 99bc 53b3 82bd
0.015073328 -0.00018756297 -0.05373403 -0.026257873 -0.028167922 0.011130937 -0.11073474 0.0075679026
0.04516155 -0.063490294 0.096420944 0.007126003 -0.058781046 -0.017378714 -0.049898397 -0.007461258
0.032373097 0.031602364 0.022427285 -0.0040925527 -0.04325486 -0.017361686 -0.13395253 -0.009677026
-0.06103108 -0.038482603 -0.026282247 -0.047495764 -0.022649672 -0.021142082 -0.018752752 -0.0638186

tfl.pseudo_qconst i1 [64, 3, 3, 32]
00000000: f0f3 eabb e50e ecf1 b601 25bb f304 ecf8
00000010: 1dd9 1527 e428 0d10 e7e0 dfd8 f8f3 0406
00000020: d00f dfc3 d6c5 e1c1 c6df dab6 0014 bed7
00000030: 069f 0235 e830 fe31 ebf5 f818 2728 1dec
00000040: 0805 dce3 b6f0 e2db ec19 e6dd fcbf e605
00000050: 1605 cf38 dd2a 1d44 dc02 04f6 ef11 f9f6
00000060: d7eb fa0c d42d 09ce b8da f1d7 fd03 e70f
00000070: 1b1a 31e5 ff06 f5e4 ff16 e1e4 06f7 f507
00000080: eee3 01eb fdb8 f7cc 81f8 e8e2 291f deff
00000090: f597 dae9 eff3 1cb6 0b0e 1cfb 0fef de08
000000a0: 3aff e106 06d7 ef26 bdde cf1a 16f7 21d9
000000b0: 0b02 ee02 08f1 0204 3518 3ae2 c4f4 1a09
000000c0: b8e8 07cb e330 f5bc 16e6 abc7 00d4 b51d
000000d0: 155c fac9 f0d0 f5f9 cb0b ecee 03ec ddf6
000000e0: deba 0dfe 1828 fd17 e7d0 b8f0 240c ec25
000000f0: d934 e5ac 02e2 09ae e9ee d8e8 17fd b5d9
-16 -13 -22 -69 -27 14 -20 -15
-74 1 37 -69 -13 4 -20 -8
29 -39 21 39 -28 40 13 16
-25 -32 -33 -40 -8 -13 4 6
-48 15 -33 -61 -42 -59 -31 -63
-58 -33 -38 -74 0 20 -66 -41
6 -97 2 53 -24 48 -2 49
-21 -11 -8 24 39 40 29 -20
8 5 -36 -29 -74 -16 -30 -37
-20 25 -26 -35 -4 -65 -26 5
22 5 -49 56 -35 42 29 68
-36 2 4 -10 -17 17 -7 -10
-41 -21 -6 12 -44 45 9 -50
-72 -38 -15 -41 -3 3 -25 15
27 26 49 -27 -1 6 -11 -28
-1 22 -31 -28 6 -9 -11 7
-18 -29 1 -21 -3 -72 -9 -52
-127 -8 -24 -30 41 31 -34 -1
-11 -105 -38 -23 -17 -13 28 -74
11 14 28 -5 15 -17 -34 8
58 -1 -31 6 6 -41 -17 38
-67 -34 -49 26 22 -9 33 -39
11 2 -18 2 8 -15 2 4
53 24 58 -30 -60 -12 26 9
-72 -24 7 -53 -29 48 -11 -68
22 -26 -85 -57 0 -44 -75 29
21 92 -6 -55 -16 -48 -11 -7
-53 11 -20 -18 3 -20 -35 -10
-34 -70 13 -2 24 40 -3 23
-25 -48 -72 -16 36 12 -20 37
-39 52 -27 -84 2 -30 9 -82
-23 -18 -40 -24 23 -3 -75 -39

tfl.pseudo_qconst1 i1 [10, 9216]
00000000: 06fa 0dfe 1003 01e6 1600 0b09 0d01 fc02
00000010: 0ded fa05 dc03 0104 fdfc ee02 effd f806
00000020: 0403 f5fe fd05 fe00 f6f5 fd04 00f9 faf5
00000030: 01fc 09f4 fd07 0503 f9fe 01f4 010b 01e8
00000040: e5fe e9f4 0ffe fef6 cefb f012 02ea f9f6
00000050: 1401 0ff5 e0fe f2fa f5ef ebfb e7fd eef3
00000060: f2d8 feed f400 e102 01f5 f0f8 fa0c 19f4
00000070: 02ee 13e8 fdf6 f2fc fd04 eff6 fa07 ee0c
00000080: 01f6 fa04 12ff f0cf df0f e810 fefe f6f8
00000090: 06fc fbfb 04f7 fcfa 1600 e0fd fc05 e1eb
000000a0: ffd7 e300 fdfc 04fd 03fc e3f6 050e 0bfb
000000b0: f8ec 03e9 f607 fdfa f8fc eefd f102 df0a
000000c0: fe06 fe05 effd fac9 f4e8 e805 f3fa f8f6
000000d0: fff6 f808 ddfd e5f1 09fb e9f1 e6fa f0db
000000e0: fae4 0aef fafc f40f e401 fcf8 fb06 d8f3
000000f0: 01de 08fc f2fa 06fe fbf7 f60a ffe4 0bfb
6 -6 13 -2 16 3 1 -26
22 0 11 9 13 1 -4 2
13 -19 -6 5 -36 3 1 4
-3 -4 -18 2 -17 -3 -8 6
4 3 -11 -2 -3 5 -2 0
-10 -11 -3 4 0 -7 -6 -11
1 -4 9 -12 -3 7 5 3
-7 -2 1 -12 1 11 1 -24
-27 -2 -23 -12 15 -2 -2 -10
-50 -5 -16 18 2 -22 -7 -10
20 1 15 -11 -32 -2 -14 -6
-11 -17 -21 -5 -25 -3 -18 -13
-14 -40 -2 -19 -12 0 -31 2
1 -11 -16 -8 -6 12 25 -12
2 -18 19 -24 -3 -10 -14 -4
-3 4 -17 -10 -6 7 -18 12
1 -10 -6 4 18 -1 -16 -49
-33 15 -24 16 -2 -2 -10 -8
6 -4 -5 -5 4 -9 -4 -6
22 0 -32 -3 -4 5 -31 -21
-1 -41 -29 0 -3 -4 4 -3
3 -4 -29 -10 5 14 11 -5
-8 -20 3 -23 -10 7 -3 -6
-8 -4 -18 -3 -15 2 -33 10
-2 6 -2 5 -17 -3 -6 -55
-12 -24 -24 5 -13 -6 -8 -10
-1 -10 -8 8 -35 -3 -27 -15
9 -5 -23 -15 -26 -6 -16 -37
-6 -28 10 -17 -6 -4 -12 15
-28 1 -4 -8 -5 6 -40 -13
1 -34 8 -4 -14 -6 6 -2
-5 -9 -10 10 -1 -28 11 -5
