app/src/main/assets/mnist.tflite (tflite, 115848 bytes, 6 tensors)

arith.constant f4 [32]
000000 f2 4c 1f bc 84 64 a5 3d d7 e6 3f bc 34 f8 35 bc
       -0.009722935 0.080758125 -0.011712751 -0.0111065395
000010 80 0b 1c bc 52 20 5f 3d c3 c2 1d 3c d2 e1 84 bb
       -0.009524226 0.054474182 0.009628954 -0.00405524
000020 3e c5 63 bb 52 25 13 bc 81 34 7d bc 09 16 9d bc
       -0.0034755017 -0.008981066 -0.015454412 -0.019175546
000030 2b 3d 4e bc aa 41 90 ba 82 ea 20 bb d2 a4 c4 bb
       -0.012587826 -0.0011005898 -0.002455384 -0.0060010934
000040 ff 10 b8 3d 83 57 76 bb e6 01 ab 3c 32 ff 70 bb
       0.08987617 -0.0037588782 0.020874929 -0.0036773202
000050 bb c7 04 3d b4 7e 4b bb a5 62 20 bc 82 1f 58 bc
       0.03241704 -0.0031050863 -0.009789144 -0.013191106
000060 71 51 0b 3d 02 0e 3a bc 95 06 aa bc 1f fa 2f bc
       0.034013215 -0.011355879 -0.020755092 -0.010740786
000070 6a ec f4 3d 04 1b bc bb 92 5d 5b bc 6c f1 20 3c
       0.11959155 -0.005740525 -0.013389008 0.009823184

arith.constant1 f4 [32, 3, 3, 1]
000000 01 66 3b 3e bd 9a bd 3e b0 05 b4 3e 50 56 c6 be
       0.1830063 0.37032118 0.3516059 -0.38737726
000010 85 d2 5b bc fa a9 58 3e ab 24 06 bf 3a 6d 50 be
       -0.013416891 0.21158591 -0.523997 -0.20354167
000020 8b 2e 08 3e 0a ff 33 bf 38 3b 30 be c5 7c c2 3d
       0.13299005 -0.70311034 -0.1721009 0.09496454
000030 45 a0 dc be 46 60 b7 3c 61 aa 92 3e 3a 24 14 bf
       -0.43091026 0.022384774 0.28645614 -0.5786778
000040 ff bd 6a bd 62 fc 85 3e 7f a2 54 3d 41 3b ae 3e
       -0.0573101 0.26169115 0.05191278 0.34029582
000050 4b 36 87 3e 83 ee 94 3e fa 31 42 3d 10 38 d4 be
       0.2640861 0.2908822 0.047410943 -0.41449022
000060 66 11 82 3e e9 6f 16 be f0 51 1c bf cc 6a 69 3e
       0.254039 -0.14691128 -0.61062527 0.22794646
000070 c1 bb eb bd 95 33 6a 3e 6d d6 5b 3d 17 02 89 bd
       -0.115104206 0.2287124 0.05367129 -0.06689852
000080 6b f1 17 be 70 2c 19 3e 67 cb a2 be 5a 26 be be
       -0.14838187 0.14958358 -0.3179581 -0.37138635
000090 f8 dc 85 3e 24 e8 7a 3d 24 96 a1 be 37 df 64 3e
       0.26145148 0.061256543 -0.3155986 0.22350775
0000a0 8b 91 dd bd 90 e5 8b bd 6d fb 89 3e 20 51 dd bd
       -0.10818776 -0.06830895 0.26949635 -0.10806489
0000b0 53 32 64 3d ce 42 88 3d 59 88 51 3e 65 50 73 3e
       0.055712055 0.06653367 0.20462169 0.23761137
0000c0 6d 90 73 3e 47 55 85 3e 3d 7e 39 be ea ac d0 be
       0.23785563 0.26041624 -0.18114562 -0.40756923
0000d0 e2 e9 ab be c2 ad 08 bf cf f8 86 be 69 0a 47 bd
       -0.33576876 -0.53390133 -0.263617 -0.048593912
0000e0 bf b1 6c 3e eb ea 8d be b8 d8 5e 3d 2b fc 0d 3e
       0.2311468 -0.2771829 0.054405898 0.13865726
0000f0 5d 0e 1d be a0 d3 09 bd db ab c1 3e f1 bc d9 3d
       -0.1533751 -0.033649087 0.37826428 0.10631741
000100 8e f2 35 3e c4 eb 26 3e 74 67 96 be 43 c7 b7 be
       0.17768309 0.16300875 -0.29375803 -0.35894212
000110 70 16 c2 bd 1c f9 4d 3e 3f 6e d4 3d 4a 18 8e 3b
       -0.09476936 0.20114559 0.1037259 0.0043363916
000120 c2 16 01 be 93 5d 44 3e 77 6f 06 3f 8c 2f b5 be
       -0.12606338 0.1917632 0.5251383 -0.35387838
000130 b3 64 ce 3d a7 24 37 3e a9 d5 01 be 52 3f e4 bd
       0.100778006 0.17885076 -0.12679161 -0.1114489
000140 8c 2b 03 be 28 25 10 be 9f 8f 03 be ff 7a 03 be
       -0.1280958 -0.14076674 -0.12847756 -0.12839888
000150 90 47 0a bd cf 4f 09 be e0 86 10 3c 84 8f 49 bd
       -0.033759654 -0.13409351 0.008821219 -0.049209133
000160 ce 01 9a bd 6d 08 b1 bd 1a 24 2f bf ee 82 62 be
       -0.075198755 -0.08644185 -0.6841446 -0.22120258
000170 bb c1 a5 3c 5d ff c0 bd 16 7a 19 3e 9d 71 ae 3d
       0.02023398 -0.09423707 0.14987978 0.08517764
000180 09 6f a0 3e a5 ed a8 3e fa 41 a4 3d 66 25 5e 3e
       0.31334713 0.32993808 0.080203965 0.21693954
000190 24 8b 17 bc 79 fe 87 3e 15 f3 45 be b7 7a 75 be
       -0.009249482 0.26561335 -0.1933101 -0.23972593
0001a0 40 7c 36 3e da d7 3a 3e 68 b5 d8 bd 12 63 9b 3e
       0.17820835 0.18246403 -0.105814755 0.30349022
0001b0 dd f1 a5 3c 55 d2 ca be 38 e0 95 be 86 bb 99 3e
       0.020256931 -0.39613596 -0.29272628 0.30025882
0001c0 72 21 92 3e 0b 81 4a 3d ca 88 59 3c 74 84 bb b9
       0.28541142 0.04943947 0.013277242 -0.00035766105
0001d0 c9 91 ed 3d dc 5c 37 3e d6 f6 f2 3d b4 7a 7c 3e
       0.11600072 0.17906517 0.118634865 0.24656183
0001e0 42 fb 1c 3d a0 62 89 3e 49 e8 8f 3d c7 69 db be
       0.038325556 0.26833057 0.07026727 -0.4285414
0001f0 78 3e 99 be 22 f0 82 be af b6 e9 3e e4 ad 9d 3e
       -0.29930472 -0.25573832 0.4564719 0.3079673
000200 05 f5 61 3d f7 a6 23 3d 48 f9 de bd 59 59 2f bc
       0.05516531 0.039954152 -0.108873904 -0.0107024545
000210 01 bf 9d be fd bc 8f bd dd 76 f1 3c 5d dc b6 3e
       -0.30809787 -0.070184685 0.029475624 0.35715
000220 fe 1c 1d be 9a 40 4b 3d 79 db 9b 3e 2c dc ed bd
       -0.15343091 0.049622156 0.30440882 -0.1161426
000230 54 e5 17 bd 19 5c d8 3e cd 9f 06 be 08 6c 78 3b
       -0.03708394 0.42257765 -0.13146897 0.0037906189
000240 d8 fd 5d 3e 06 97 88 3e 0d ed 4a 3e 87 ae 23 be
       0.21678865 0.26677722 0.1981699 -0.15984546
000250 ea 6d 84 3d 5d eb 49 3c 2e 87 32 bf 63 c8 b9 be
       0.06466277 0.012324181 -0.6973752 -0.36285695
000260 f1 15 15 bf 65 ad fb 3e 4c 20 0f be a0 f0 4b be
       -0.58236605 0.49155727 -0.13977164 -0.1991601
000270 c9 8e a5 3e 6d 6d dd 3c b6 c3 31 bd f5 40 f6 bd
       0.323355 0.027029717 -0.043399535 -0.12024108
000280 bd 21 1a be 88 36 49 3d 84 00 8b 3e fe f2 3f 3e
       -0.15051933 0.04912427 0.2714883 0.18745038
000290 ae a2 41 be 78 31 63 3e 23 f4 05 bd da 2e 48 be
       -0.18909714 0.2218684 -0.03270353 -0.19549122
0002a0 ce 52 57 3e c8 e5 f8 bd 02 a3 e6 be 70 19 97 3e
       0.21027681 -0.12153202 -0.4504624 0.29511595
0002b0 8a fe 93 3e fa fa 91 3e 15 29 37 3e 27 62 4c bd
       0.28905135 0.28511792 0.17886765 -0.049898293
0002c0 55 09 65 be 89 3e 1c bd a5 9a ac be bf 03 b8 be
       -0.22366841 -0.038145576 -0.33711734 -0.35940358
0002d0 ae 31 6f 3e eb 0c 96 3c 00 ea 0f be 76 f0 33 3e
       0.23358795 0.018316707 -0.14054108 0.17572197
0002e0 ee 94 d7 3c 7a 30 ad be 03 ac aa 3e 42 2d 83 bd
       0.026316132 -0.33826047 0.3333436 -0.064051166
0002f0 3a f2 b1 be 59 39 5b 3e 7a 69 38 3e a3 15 a4 3e
       -0.34755117 0.21408595 0.18008986 0.32047758
000300 41 b6 99 3c 4b d9 9d bd 43 e1 74 3e c2 75 64 bd
       0.018763663 -0.07707461 0.23914056 -0.055776365
000310 62 72 87 be a6 c0 96 be 4a 06 2a 3e a1 25 83 be
       -0.26454455 -0.29443854 0.16603962 -0.25614646
000320 07 d9 b3 be 33 0c 35 3e 5e f5 0d be 83 28 11 be
       -0.35126516 0.17680435 -0.13863131 -0.1417561
000330 5c 00 64 3e bf ee c9 3d a0 92 66 3e 69 40 28 3e
       0.22265762 0.0985999 0.2251687 0.1643082
000340 be 5b b6 3d 95 c3 2a 3e 01 51 c2 bd ee 2d 8d be
       0.08904217 0.16676171 -0.094881065 -0.27574104
000350 3c bc f0 3d 4f 72 f3 bd 92 eb 0f 3d 84 8a 30 3e
       0.11754653 -0.11887037 0.035136767 0.1724034
000360 ae 33 45 be ef ee db be ee 3a 8d be 56 b7 e7 3c
       -0.19257995 -0.4295573 -0.27584022 0.028285664
000370 ed 0b 98 3c 93 cd bb 3d b7 40 72 3e 08 c1 86 3e
       0.018560374 0.091700695 0.23657499 0.26319146
000380 31 6f 51 3e 96 82 d6 bd f5 aa cb bd bc 9f 9e 3e
       0.20452572 -0.10474126 -0.09944717 0.30981243
000390 04 48 1d 3e a0 b8 bf 3d 27 bc a9 3e f6 c6 92 bd
       0.15359503 0.09361386 0.3315136 -0.07166855
0003a0 7d f0 08 be 2c 3e b1 be 3e 32 1c be a9 38 ee 3d
       -0.13372989 -0.34617746 -0.15253541 0.11631901
0003b0 69 6f 31 3e 46 8c 9c bd 24 9c c8 3d aa cc 13 3d
       0.17327656 -0.076439425 0.097954065 0.036083855
0003c0 14 b7 d6 bb 69 f3 55 3c 81 e8 28 be 83 26 a4 3e
       -0.0065525863 0.013058522 -0.16494943 0.32060632
0003d0 b6 0e 2a 3d e6 4a 0c bf c6 da db bd 8c f1 2f bd
       0.041517936 -0.54801786 -0.10735087 -0.042954966
0003e0 de e8 95 3b c6 c1 8f bb 3f f4 9f 3d 8f 17 06 3f
       0.004574879 -0.0043871133 0.07810258 0.523797
0003f0 9a d8 a6 3e 73 18 74 3e fe 1a 36 be 3d 35 54 3e
       0.3258713 0.23837452 -0.17783734 0.20723434

arith.constant3 f4 [10]
000000 6d c9 be 3b 6c 5f 28 3e 14 72 a5 bd 15 27 a9 bd
       0.0058223517 0.1644265 -0.08078399 -0.082594074
000010 23 80 2b bd 67 bb 38 bd e1 39 56 3d 06 21 92 3b
       -0.041870248 -0.045100596 0.05230129 0.004459503
000020 ff 63 76 bd f7 1d ee 3d
       -0.060153957 0.11626809

arith.constant4 f4 [64]
000000 16 fa 2f bd ee 1d dd bc 66 0d 95 3d d7 b2 c4 bd
       -0.04296311 -0.02699181 0.07277946 -0.096044235
000010 77 c6 ee bc bf 5a ca bc 53 73 bb bc 12 d4 db 3c
       -0.02914737 -0.024701474 -0.02288214 0.026834521
000020 50 a0 60 bc 8c fb 18 3c 11 8d 36 3c 68 ac 19 bd
       -0.0137100965 0.009337317 0.011142031 -0.037517935
000030 2f c8 bf 3c 86 8a d0 bd a1 4f 38 3d e3 d2 09 bd
       0.023410885 -0.10182671 0.044997815 -0.033648383
000040 23 7c 0a bd 8f ba 1f bd 01 cf 31 bd e1 1b c7 bc
       -0.033809792 -0.038996276 -0.043410305 -0.024305286
000050 7f a2 c0 bc e6 a6 66 bc 5d 97 63 bc 76 71 c5 bd
       -0.023514984 -0.014077878 -0.013891068 -0.096407816
000060 53 33 80 bc 4b f8 e3 bd 2c 58 82 bc 1e 81 bf 3d
       -0.015649473 -0.111313425 -0.015911184 0.09350799
000070 17 5a 4e bc 80 06 88 bd 59 b7 99 3c 76 21 05 bd
       -0.012594721 -0.06641865 0.018764185 -0.032502614
000080 37 93 7b bd 72 7c 00 bd 77 ca 85 3d f0 d2 cf bb
       -0.061419692 -0.03136868 0.06532758 -0.0063422844
000090 bc 2d 63 bd 43 3c 3b bd 45 6d ad bd ba 6d 97 bc
       -0.055463538 -0.045711767 -0.08468107 -0.018484939
0000a0 b2 db 0a bc d9 2d b6 bc a7 57 c0 bc 27 bd 80 39
       -0.008475231 -0.022238659 -0.023479296 0.00024554992
0000b0 a4 31 03 3d fc 7f 5f 3d d1 e8 ca bc 8c 47 c5 3b
       0.032029763 0.054565415 -0.024769219 0.006020492
0000c0 6c 26 15 3d ef 49 87 bc ba 10 33 bc c8 a7 b5 38
       0.036413595 -0.016514746 -0.010929281 8.662004e-05
0000d0 73 9d d2 3c c2 8f 05 bc ea 7f 1f bd 8c 01 c8 bc
       0.025709843 -0.00815195 -0.038940348 -0.0244148
0000e0 ef 06 a1 bd ca e8 80 bd 94 b8 bd bc ea f2 69 bd
       -0.078626506 -0.06294401 -0.023159303 -0.057116427
0000f0 6a c7 1c bd cf 3c 2b 3d 6a d6 c2 3c 0f 84 44 bd
       -0.038276114 0.04180604 0.023783881 -0.047977503

tfl.pseudo_qconst i1 [64, 3, 3, 32]
000000 0f 81 26 09 0f ee 91 34 f7 06 fa f4 e1 05 fb 0d
       15 -127 38 9 15 -18 -111 52 -9 6 -6 -12 -31 5 -5 13
000010 f8 01 fb 07 0a fc 07 ff e9 e4 02 e1 f4 15 03 97
       -8 1 -5 7 10 -4 7 -1 -23 -28 2 -31 -12 21 3 -105
000020 0e cd 0b fd f3 00 dd 3a 01 fe f2 14 ee 0c 27 07
       14 -51 11 -3 -13 0 -35 58 1 -2 -14 20 -18 12 39 7
000030 fd ff fc 13 0b 0d f8 0b ef f7 ee ee 06 01 0b ed
       -3 -1 -4 19 11 13 -8 11 -17 -9 -18 -18 6 1 11 -19
000040 29 fe 06 05 dc f8 1a 29 10 f3 00 1d e7 0d 18 ed
       41 -2 6 5 -36 -8 26 41 16 -13 0 29 -25 13 24 -19
000050 16 f0 f5 09 fd 18 dd 11 df 0f f9 fc 06 f1 fc 22
       22 -16 -11 9 -3 24 -35 17 -33 15 -7 -4 6 -15 -4 34
000060 e1 b9 f1 fc 11 eb bd 05 f6 03 ea fd 15 e2 08 07
       -31 -71 -15 -4 17 -21 -67 5 -10 3 -22 -3 21 -30 8 7
000070 cd 02 ee e0 f7 cd 1a 09 fc dd 00 18 c9 12 f8 d0
       -51 2 -18 -32 -9 -51 26 9 -4 -35 0 24 -55 18 -8 -48
000080 c5 ce fa f1 f4 f0 ed 0d eb f5 07 fb f7 fe ee 04
       -59 -50 -6 -15 -12 -16 -19 13 -21 -11 7 -5 -9 -2 -18 4
000090 c4 0a e8 c7 f3 ec fb 0a 11 01 ee f6 c7 0d ef f7
       -60 10 -24 -57 -13 -20 -5 10 17 1 -18 -10 -57 13 -17 -9
0000a0 ed db 1d 04 e1 fe 09 08 01 f4 f9 fe d5 0d e6 f2
       -19 -37 29 4 -31 -2 9 8 1 -12 -7 -2 -43 13 -26 -14
0000b0 f1 ea f8 04 ef 09 e4 e8 fe 04 07 dc f0 f2 01 09
       -15 -22 -8 4 -17 9 -28 -24 -2 4 7 -36 -16 -14 1 9
0000c0 46 bd c0 fa 0b fa ea 5a 0a 0e e8 04 18 2e 21 f3
       70 -67 -64 -6 11 -6 -22 90 10 14 -24 4 24 46 33 -13
0000d0 03 fe c7 ed cc 14 0b 18 03 07 f5 0f c2 eb 07 eb
       3 -2 -57 -19 -52 20 11 24 3 7 -11 15 -62 -21 7 -21
0000e0 06 b4 e6 f5 fe 15 ca 3f 0f f7 f0 02 10 1b 17 fa
       6 -76 -26 -11 -2 21 -54 63 15 -9 -16 2 16 27 23 -6
0000f0 0b 08 db ea e0 08 10 02 16 16 08 0f eb 03 00 ea
       11 8 -37 -22 -32 8 16 2 22 22 8 15 -21 3 0 -22

tfl.pseudo_qconst1 i1 [10, 9216]
000000 e5 0b c7 ce f4 fd f3 e5 04 fe e5 05 02 d8 f6 eb
       -27 11 -57 -50 -12 -3 -13 -27 4 -2 -27 5 2 -40 -10 -21
000010 00 c0 02 00 fc f3 01 ee 01 03 cf f7 e0 db e5 f9
       0 -64 2 0 -4 -13 1 -18 1 3 -49 -9 -32 -37 -27 -7
000020 e2 f2 00 ac f1 06 05 00 aa e9 f8 ff fc f2 15 fd
       -30 -14 0 -84 -15 6 5 0 -86 -23 -8 -1 -4 -14 21 -3
000030 fe ff fe f5 f0 0d e3 d2 28 a8 14 b7 00 e9 f0 da
       -2 -1 -2 -11 -16 13 -29 -46 40 -88 20 -73 0 -23 -16 -38
000040 f4 fd cb ce 08 fb 03 d3 01 03 ee 04 08 ea 05 ef
       -12 -3 -53 -50 8 -5 3 -45 1 3 -18 4 8 -22 5 -17
000050 fc ea ff 05 ee fa ff e8 fe 0a db 0c cd eb f8 f1
       -4 -22 -1 5 -18 -6 -1 -24 -2 10 -37 12 -51 -21 -8 -15
000060 e1 ef 08 c4 ea 06 03 ff c4 d9 04 ea 00 11 16 08
       -31 -17 8 -60 -22 6 3 -1 -60 -39 4 -22 0 17 22 8
000070 f8 fd fd f6 ea 09 01 e1 10 e5 0a fa fb eb 06 01
       -8 -3 -3 -10 -22 9 1 -31 16 -27 10 -6 -5 -21 6 1
000080 03 18 d6 dd f6 00 06 d6 02 fd 02 00 12 05 f4 f9
       3 24 -42 -35 -10 0 6 -42 2 -3 2 0 18 5 -12 -7
000090 09 ee fe f6 fa 00 01 e7 fb 02 e7 fe b9 fd 00 d2
       9 -18 -2 -10 -6 0 1 -25 -5 2 -25 -2 -71 -3 0 -46
0000a0 ff ee 01 d4 10 0e 1b ed c3 e4 12 f1 08 fd 06 f4
       -1 -18 1 -44 16 14 27 -19 -61 -28 18 -15 8 -3 6 -12
0000b0 f4 fc fd d2 db 0c 0f fd 07 d6 19 f8 ff f3 f2 12
       -12 -4 -3 -46 -37 12 15 -3 7 -42 25 -8 -1 -13 -14 18
0000c0 04 15 e7 ee e8 fb 0c c6 00 0e fc 01 04 17 eb f5
       4 21 -25 -18 -24 -5 12 -58 0 14 -4 1 4 23 -21 -11
0000d0 06 f9 fb 06 f1 f8 fc ff 04 ea f2 ff af de 0b e3
       6 -7 -5 6 -15 -8 -4 -1 4 -22 -14 -1 -81 -34 11 -29
0000e0 ec f2 07 cf 1d 15 04 fe d3 e5 0a d8 0d 09 09 02
       -20 -14 7 -49 29 21 4 -2 -45 -27 10 -40 13 9 9 2
0000f0 f1 ff fd f4 e7 0e 0b f0 0c cc 04 e4 ff f0 f6 08
       -15 -1 -3 -12 -25 14 11 -16 12 -52 4 -28 -1 -16 -10 8
